# Ultralytics YOLO 🚀, AGPL-3.0 license
# YOLOv8 object detection model with P3-P5 outputs. For Usage examples see https://docs.ultralytics.com/tasks/detect

# Parameters
nc: 80  # number of classes
scales: # model compound scaling constants, i.e. 'model=yolov8n.yaml' will call yolov8.yaml with scale 'n'
  # [depth, width, max_channels]
  x: [1.00, 1.25, 512]   # YOLOv8x summary: 365 layers, 68229648 parameters, 68229632 gradients, 258.5 GFLOPs

# YOLOv8.0n backbone
backbone:
  # [from, repeats, module, args]
  - [-1, 1, Conv, [64, 3, 2]]  # 0-P1/2
  - [-1, 1, Conv, [128, 3, 2]]  # 1-P2/4
  - [-1, 3, C2f_BiFocus, [128, True]]
  - [-1, 1, Conv, [256, 3, 2]]  # 3-P3/8
  - [-1, 6, C2f, [256, True]]
  - [-1, 1, Conv, [512, 3, 2]]  # 5-P4/16
  - [-1, 6, C2f, [512, True]]
  - [-1, 1, Conv, [1024, 3, 2]]  # 7-P5/32
  - [-1, 3, C2f, [1024, True]]
  - [-1, 1, SPPF, [1024, 5]]  # 9

backbone2:
  # [from, repeats, module, args]
  - [-1, 1, Conv, [64, 3, 2]]  # 10-P1/2
  - [-1, 1, Conv, [128, 3, 2]]  # 11-P2/4
  - [-1, 3, C2f_BiFocus, [128, True]]
  - [-1, 1, Conv, [256, 3, 2]]  # 13-P3/8
  - [-1, 6, C2f, [256, True]]
  - [-1, 1, Conv, [512, 3, 2]]  # 15-P4/16
  - [-1, 6, C2f, [512, True]]
  - [-1, 1, Conv, [1024, 3, 2]]  # 17-P5/32
  - [-1, 3, C2f, [1024, True]]
  - [-1, 1, SPPF, [1024, 5]]  # 19

# YOLOv8.0n head
head:
  - [[4, 14], 1, DEA, [256, 80]]   # 20    attention
  - [[6, 16], 1, DEA, [512, 40]]   # 21
  - [[9, 19], 1, DEA, [1024, 20]]   # 22

  - [-1, 1, nn.Upsample, [None, 2, 'nearest']]
  - [[-1, 21], 1, Concat, [1]]  # cat backbone P4
  - [-1, 3, C2f, [512]]  # 25

  - [-1, 1, nn.Upsample, [None, 2, 'nearest']]
  - [[-1, 20], 1, Concat, [1]]  # cat backbone P3
  - [-1, 3, C2f, [256]]  # 28 (P3/8-small)

  - [-1, 1, Conv, [256, 3, 2]]
  - [[-1, 25], 1, Concat, [1]]  # cat head P4
  - [-1, 3, C2f, [512]]  # 31 (P4/16-medium)

  - [-1, 1, Conv, [512, 3, 2]]
  - [[-1, 22], 1, Concat, [1]]  # cat head P5
  - [-1, 3, C2f, [1024]]  # 34 (P5/32-large)

  - [[28, 31, 34], 1, Detect, [nc]]  # Detect(P3, P4, P5)
